Flaskapp/confidence/gcn_fp_classifier.pth (torch, 48684 bytes, 6 tensors)

conv1.bias f4 [64]
0	0xbe87eb26	-0.26546592
1	0x3fab3d6c	1.337812
2	0xbf62592f	-0.88417333
3	0xbdd22794	-0.10261455
4	0xbf99ddc8	-1.2020807
5	0xbdaaab24	-0.08333424
6	0xbd994071	-0.07482994
7	0xbdbb1456	-0.09134738
8	0xbdb4b55f	-0.08823656
9	0xbe21c619	-0.15798225
10	0xbdaf7f02	-0.08569147
11	0xbd958c3f	-0.073021404
12	0xbdcc6c9f	-0.09981655
13	0xbf2ec4d0	-0.6826906
14	0xbd86a799	-0.065749355
15	0xbd9dd681	-0.07706929
16	0x3dafc155	0.08581797
17	0xbf7eeb08	-0.9957738
18	0xbd8d4a5e	-0.0689895
19	0xbd68d5a9	-0.056844387
20	0xbd75e674	-0.06003423
21	0xbdcd99a2	-0.10039069
22	0xbdc29944	-0.09501889
23	0xbd86e7fe	-0.06587218
24	0xbd4793d9	-0.048724983
25	0xbdb41216	-0.08792512
26	0xbd896a0d	-0.06709681
27	0xbe852b64	-0.26009667
28	0xbd3b1050	-0.045669854
29	0xbda47ab4	-0.08031216
30	0xbf100097	-0.562509
31	0xbd48447a	-0.04889343
32	0xbf5620a4	-0.83643556
33	0xbe03cb53	-0.12870531
34	0xbd6238e0	-0.05523002
35	0xbff2d608	-1.8971567
36	0xbda06b94	-0.07833019
37	0xbe8afff1	-0.27148393
38	0x3f5459f0	0.82949734
39	0xbdc717d1	-0.097213395
40	0xbd39224a	-0.045198716
41	0xbf16bf2b	-0.5888545
42	0xbd71aefb	-0.059004765
43	0xbed40e7b	-0.41417298
44	0xbe49182c	-0.19638127
45	0xbd802e78	-0.06258863
46	0x3f7c501e	0.9855975
47	0xbda44a92	-0.08022036
48	0xbe06bf14	-0.13158828
49	0xbd6439ca	-0.055719174
50	0xbe183d00	-0.1486702
51	0xbeda6d65	-0.42661586
52	0xbd733126	-0.059373043
53	0xbe49addb	-0.19695227
54	0xbd85a59c	-0.06525728
55	0xbf0919cc	-0.5355499
56	0xbd75f257	-0.060045566
57	0xbd9a3665	-0.07529906
58	0xbd7fa041	-0.06240869
59	0x3d6cb494	0.0577894
60	0xbdfd8839	-0.12379498
61	0xbd6f81a1	-0.058473233
62	0xbd80a9ec	-0.0628241
63	0xbdb1d403	-0.08683016

conv1.lin.weight f4 [64, 111]
0	0xbe2c4615	-0.16823609
1	0xbd0b80f4	-0.034058526
2	0x3e288e8c	0.16460627
3	0x3e25d5a2	0.16194776
4	0x3d92df21	0.07171465
5	0x3d323f03	0.043517124
6	0x3dfed6e3	0.1244333
7	0x3e307cc6	0.17235097
8	0x3c4bff1b	0.012450959
9	0xbe22e15c	-0.1590628
10	0x400554c4	2.0832987
11	0x3e2aa092	0.16662815
12	0x3e9e8054	0.30957282
13	0xbe482ff3	-0.19549541
14	0x3eb0a5fc	0.34501636
15	0x3ea2b003	0.3177491
16	0x3c901d2b	0.017592033
17	0xbe90e968	-0.28303075
18	0xbe189d87	-0.14903842
19	0xbc4a01d6	-0.012329539
20	0x3edf8f36	0.4366395
21	0x3e8819f7	0.2658231
22	0x3e524506	0.20534143
23	0xbe26e639	-0.1629876
24	0x3e15ab11	0.14616038
25	0x3ebaeba6	0.3650791
26	0x3ed6f3e6	0.41982955
27	0x3e37215e	0.17883822
28	0xbeb3f4d8	-0.35147738
29	0x3e5a0d3d	0.21294113
30	0xbe2cb5ff	-0.16866301
31	0xbe11b762	-0.14230111
32	0xbe752876	-0.23941216
33	0xbebb646b	-0.3660005
34	0x3e2a8ad2	0.16654518
35	0xbd9f98e7	-0.07792836
36	0xbe4768d3	-0.19473581
37	0x3f02402f	0.50879186
38	0xbe232fc8	-0.15936196
39	0xbc9af098	-0.018913552
40	0xbec13339	-0.37734392
41	0x3d1621c6	0.036653303
42	0x3e66f365	0.22553785
43	0x3cf73fff	0.030181883
44	0x3e0c5b19	0.13706626
45	0xbe1b05f2	-0.15138987
46	0x3ee04821	0.4380503
47	0x3e8f4ba1	0.27987388
48	0x3e64c6cd	0.22341461
49	0x3dce2e01	0.10067368
50	0xbe4e43bc	-0.20143026
51	0x3ddc58d9	0.10759134
52	0x3e0c00a6	0.13672122
53	0xbeabb1e5	-0.3353416
54	0x3e5169b3	0.20450477
55	0x3e8fd998	0.28095698
56	0x3f04b82e	0.51843536
57	0xbd894fd5	-0.0670468
58	0x3ef93a8f	0.4867749
59	0x3e989c27	0.29806635
60	0xbe913fee	-0.28369087
61	0xbf0d9aeb	-0.5531451
62	0xbe1f2d98	-0.15544736
63	0x3dafdf64	0.0858753
64	0xbece1963	-0.40253744
65	0xbdc7960d	-0.09745417
66	0xbd12cb28	-0.035838276
67	0xbe860497	-0.26175377
68	0xbe178ac0	-0.14799023
69	0x3ee521f0	0.44752455
70	0xbf0adb94	-0.542413
71	0xbda7c43b	-0.08191725
72	0x3dd10fda	0.102081016
73	0x3ec1a53a	0.3782137
74	0xbeb9740a	-0.36221343
75	0x3e74f4c9	0.23921503
76	0xbdd3fd8f	-0.10351097
77	0x3d9d22c9	0.0767265
78	0xbdd565ed	-0.104198314
79	0x3e930b61	0.2871962
80	0x3ebf4a1f	0.37361237
81	0x3ccbb17d	0.024864906
82	0xbf2a88a8	-0.6661477
83	0x3d89ccc0	0.06728506
84	0x3e7d6163	0.24744181
85	0x3ea2de90	0.31810427
86	0x3bbe0b7c	0.005799709
87	0x3d7b3ead	0.06133907
88	0x3e0b1c4b	0.13585012
89	0x3c4e2d48	0.012584038
90	0x3e2156e9	0.1575581
91	0x3ebf1f76	0.3732869
92	0x3e0963c4	0.13416964
93	0x3ca6f6de	0.020381387
94	0x3ec9d20d	0.3941807
95	0x3e5d646d	0.2162034
96	0xbec65f2d	-0.38744488
97	0x3ef485a1	0.477582
98	0xbef59ced	-0.47971287
99	0x3ee49abf	0.44649312
100	0xbe6ac25d	-0.22925706
101	0x3e545f23	0.20739417
102	0x3f488eaf	0.7834272
103	0xbe1fc6d2	-0.15603188
104	0x3e6cdbf6	0.23130783
105	0xbecca572	-0.39969975
106	0x3b9767f9	0.004620549
107	0xbdd9793d	-0.106188275
108	0xbe9729e5	-0.2952415
109	0xbdfa69a9	-0.12227184
110	0xbee587d7	-0.448302
111	0x3d36448c	0.044498965
112	0x3d110796	0.035407625
113	0x3d9b254d	0.07575474
114	0xbd974633	-0.07386436
115	0xbe1135ce	-0.14180681
116	0xbe0c16b2	-0.13680533
117	0xbd86f5d6	-0.06589858
118	0xbd154cd1	-0.03645021
119	0xbcee546d	-0.029092992
120	0xbd86dd3b	-0.06585165
121	0xbff82b42	-1.9388201
122	0x401abb96	2.4176993
123	0x402f2c81	2.7370913
124	0xc047fc23	-3.1247642
125	0x3e300dc7	0.17192756
126	0x3e3cc470	0.1843431
127	0xc0352d47	-2.8308885
128	0xbf247750	-0.64244556
129	0x4020f246	2.5147872
130	0x3e820e00	0.25401306
131	0x3fc3e433	1.5304016
132	0xbe8a87c5	-0.2705671
133	0xbe0b929f	-0.1363015
134	0xb91f36ed	-0.00015183883
135	0xbf84917e	-1.0356901
136	0xbf70898e	-0.9395989
137	0x3f130a23	0.5743734
138	0x3ff95fe0	1.9482384
139	0xc06fc88d	-3.7466156
140	0x3e056740	0.13027668
141	0xbf65bf7c	-0.89745307
142	0x3e4238b7	0.18966947
143	0xc05f6e35	-3.4911015
144	0xbe14b21a	-0.14521065
145	0x3f4e030d	0.80473405
146	0xbe89bd3a	-0.2690218
147	0x3f3fef44	0.74974465
148	0x3f290212	0.66018784
149	0x3f5c4181	0.8603745
150	0x3d46a737	0.048499312
151	0xbff9548e	-1.9478929
152	0x3fa4e974	1.2883744
153	0x3fb324a1	1.3995553
154	0x3f91184f	1.1335543
155	0xbf96f32f	-1.1792964
156	0x3f9a445c	1.2052112
157	0x4081752f	4.0455546
158	0x3e436ce1	0.19084503
159	0xbf1cac3c	-0.6120031
160	0xbfbe9d7f	-1.4891814
161	0xbf4be005	-0.796387
162	0xbe0d6c9b	-0.13810961
163	0xc0185cb8	-2.380659
164	0x3f082cf6	0.53193605
165	0x4018b5b0	2.3860893
166	0x3fb54442	1.4161456
167	0x405d1970	3.4546776
168	0x3e395ff4	0.1810301
169	0xbecb43f1	-0.39700273
170	0x3fecdc97	1.8504819
171	0x3f96e24c	1.178781
172	0xbfb230d1	-1.3921148
173	0xc018f1bf	-2.389755
174	0xbd922401	-0.071357735
175	0xbf99ece4	-1.2025418
176	0xbf2e5d4a	-0.681111
177	0xc083b58b	-4.115911
178	0xbe6bc150	-0.23022962
179	0x3f00dba7	0.5033516
180	0xbd44e2e8	-0.048067957
181	0xc058972d	-3.384227
182	0x40146a4b	2.3189876
183	0xbe7e895e	-0.24857089
184	0x3fc077d7	1.5036572
185	0x3f45e78b	0.7730643
186	0xbf566cdd	-0.8375986
187	0xc13dd275	-11.863881
188	0xbf897e4c	-1.0741668
189	0xbf9e52e3	-1.2369045
190	0x3ed6efbf	0.41979787
191	0x3f9f27e7	1.2434052
192	0x3e25533d	0.16145034
193	0xbff97e8e	-1.9491746
194	0xbe54976d	-0.2076089
195	0x3fb6743c	1.4254222
196	0x401d1860	2.4546127
197	0x402d38d4	2.7065935
198	0x3f94cc0d	1.1624771
199	0x3ed09d21	0.4074488
200	0x3f87d88b	1.0612959
201	0x3e1151b8	0.1419133
202	0x3e2cc8a1	0.16873409
203	0x3fe29d86	1.7704322
204	0xbe964df1	-0.2935634
205	0x3fd916b3	1.6960052
206	0xbfe4e779	-1.788314
207	0xbd5f26a4	-0.05448021
208	0x3f85d3c0	1.0455246
209	0xbf477ef9	-0.7792812
210	0x40071fdc	2.1113195
211	0xbffaeafa	-1.9602959
212	0x3fec5f6e	1.8466623
213	0x3f2670f2	0.6501609
214	0xbd02a3af	-0.031894382
215	0x3f86137c	1.0474696
216	0xbfc619bc	-1.5476604
217	0x3f7a4e4b	0.97775716
218	0x3e8abc8a	0.2709697
219	0xc09563f1	-4.66845
220	0x3f278204	0.65432763
221	0xc0019d94	-2.0252428
222	0xbe1ea2dc	-0.15491813
223	0x3e1d7ff6	0.15380844
224	0x3d945ae9	0.07243902
225	0xb9d566cb	-0.00040703113
226	0xbe313373	-0.17304783
227	0x3d0033e8	0.0312995
228	0x3e0a0d9c	0.13481754
229	0xbde3261d	-0.11091254
230	0xbd9431ef	-0.072360866
231	0xbe33ed3c	-0.17570966
232	0x416d96a5	14.849278
233	0x3ebfc89e	0.37457746
234	0xbe8126a8	-0.25224805
235	0x3e9b3523	0.30313978
236	0x3ec97957	0.39350387
237	0x3eeec687	0.4663584
238	0x3d7e2405	0.06204607
239	0xbee0fc55	-0.43942514
240	0x3ee7f0de	0.45300955
241	0xbdd1094d	-0.10206852
242	0x3e66e0e1	0.22546722
243	0x3e43b0dc	0.19110435
244	0x3e9f6cc2	0.31137663
245	0xbe7554be	-0.23958108
246	0x3f0d4fc5	0.55199844
247	0x3e5888e8	0.21145976
248	0x3f0f81cd	0.56057435
249	0xbe85d469	-0.2613862
250	0xbea3d1e1	-0.31996062
251	0x3f0352fd	0.51298505
252	0xbea12426	-0.31472892
253	0xbf3d1e87	-0.73874706
254	0x3c2e46d8	0.010637008
255	0xbe24b936	-0.16086277

conv2.bias f4 [64]
0	0xbe214a52	-0.15751007
1	0xbe53f488	-0.2069875
2	0xbe4bf19a	-0.19916382
3	0xbddb049b	-0.10694238
4	0xbe5d0956	-0.21585593
5	0xbe624f73	-0.2210062
6	0xbf00929c	-0.5022371
7	0x3e58a228	0.21155608
8	0xbf3e78e4	-0.74403214
9	0xbeb7baa1	-0.35884574
10	0xbe4273e3	-0.1898952
11	0xbf8fb585	-1.122727
12	0xbe955240	-0.29164314
13	0xbf78dd76	-0.9721292
14	0xbe46422a	-0.19361177
15	0xbf750bb5	-0.9572099
16	0xbfa51273	-1.2896255
17	0xbdad9856	-0.084763214
18	0xbee01e99	-0.43773344
19	0xbf74b594	-0.95589566
20	0xbe8e8a8a	-0.27840072
21	0xbede6b7d	-0.43441382
22	0xbee4ed69	-0.4471238
23	0xbf12009e	-0.5703219
24	0xbe32901c	-0.17437786
25	0xbf7ba768	-0.98302317
26	0xbe2f9609	-0.17147078
27	0xbee7b32e	-0.4525389
28	0xbec73d6f	-0.38914058
29	0xbead563d	-0.33854857
30	0xbe853b84	-0.2602197
31	0xbe48a84d	-0.19595452
32	0xbf75ce00	-0.96017456
33	0xbf38bb28	-0.7216058
34	0xbf24edd4	-0.64425397
35	0xbdf7b280	-0.12094593
36	0xbf2dc136	-0.6787294
37	0xbf1cef35	-0.613025
38	0xbe5f42a0	-0.21802759
39	0xbe85b773	-0.26116523
40	0xbeaa30f0	-0.3324046
41	0xbca193d2	-0.019723807
42	0xbe7073b4	-0.23481637
43	0xbe0b2804	-0.13589483
44	0xbf18af4c	-0.5964248
45	0xbec9cb22	-0.3941279
46	0xbe1f6370	-0.15565276
47	0xbf050aed	-0.51969796
48	0xbe814d77	-0.25254413
49	0xbf891c52	-1.0711768
50	0xbec5814c	-0.38575208
51	0xbec01f7d	-0.37524024
52	0xbea4ef38	-0.3221376
53	0xbdd5ed55	-0.10445658
54	0xbf1d547e	-0.6145705
55	0xbeff7380	-0.49892807
56	0xbe75fb3e	-0.24021623
57	0xbfc0a770	-1.5051098
58	0xbeb7aa94	-0.35872328
59	0xbe8eb886	-0.27875155
60	0xbe2d0782	-0.16897395
61	0xbe832fd2	-0.25622422
62	0xbec94f79	-0.39318445
63	0xbe8aad84	-0.27085507

conv2.lin.weight f4 [64, 64]
0	0xbe78757f	-0.24263571
1	0x3d96b9e3	0.07359674
2	0xbe590f97	-0.21197353
3	0x3dfd5dd1	0.1237141
4	0xbe7404cb	-0.23829953
5	0xbda4befe	-0.08044241
6	0xbda93775	-0.08262531
7	0x3d0c8fa9	0.034316693
8	0xbe21890b	-0.15774934
9	0x3d3c994f	0.046044644
10	0xbe2dbea0	-0.16967249
11	0xbd357765	-0.044303317
12	0xbe3a46d8	-0.18191087
13	0xbe4a9b69	-0.19785847
14	0xbe026406	-0.12733468
15	0x3d0b0bb0	0.033946693
16	0xbeb30438	-0.34964156
17	0xbd6b5c07	-0.05746081
18	0xbdcd9c1f	-0.10039543
19	0x3db125eb	0.086498104
20	0xbd7b48e1	-0.0613488
21	0xbd8472cc	-0.06467208
22	0x3dd1a66d	0.10236821
23	0xbda146b0	-0.07874811
24	0x3d46b7b2	0.04851503
25	0xbb2d55a9	-0.0026448763
26	0xbdf560b5	-0.11981336
27	0xbe32bae1	-0.17454101
28	0x3d9dcca3	0.07705047
29	0x3e042b56	0.12907156
30	0xbe78243f	-0.24232577
31	0xbe2a9b51	-0.16660811
32	0xbe141299	-0.1446022
33	0x3de1b4bd	0.11020801
34	0x3dce71de	0.10080312
35	0xbdad932b	-0.08475336
36	0x3d6a592d	0.05721395
37	0xbe0c60c8	-0.13708794
38	0xbdd0fe5f	-0.102047674
39	0xbe17d119	-0.14825858
40	0xbe69f239	-0.22846307
41	0xbe01763d	-0.1264276
42	0xbe0954ad	-0.13411207
43	0x3a4a11b7	0.0007708328
44	0xbe2f401e	-0.17114303
45	0xbdf29af9	-0.11845965
46	0xbeba8d56	-0.36435956
47	0x3e1bcc41	0.15214635
48	0x3f894cda	1.0726578
49	0xbda3c2f0	-0.07996166
50	0xbee8f37b	-0.4549826
51	0xbe72b737	-0.23702703
52	0xbdc31646	-0.09525733
53	0xbe96afe9	-0.29431084
54	0xbc8f66a5	-0.017505
55	0x3cc6aa64	0.02425117
56	0x3e3ad2e2	0.18244508
57	0x3e21bb5f	0.15794133
58	0x3e1b1191	0.1514342
59	0xbe90c63f	-0.2827625
60	0xbe63a90e	-0.22232458
61	0xbda7a4e4	-0.08185747
62	0xbdb630c9	-0.08896024
63	0x3c5f1015	0.013614674
64	0x3b983424	0.0046448875
65	0xbe8b78fa	-0.27240735
66	0xbe587471	-0.21138169
67	0x3e01c831	0.12674023
68	0xbe80964a	-0.2511466
69	0x3d5e8455	0.05432542
70	0xbe8873bf	-0.26650807
71	0x3d0b4dc5	0.034009714
72	0xbe39a682	-0.18129924
73	0x3e5933f2	0.21211222
74	0xbe7f01a0	-0.24902964
75	0x3cd4847c	0.02594208
76	0x3cbeb6b9	0.023280488
77	0xbf527e6e	-0.82224166
78	0x3e805d57	0.25071213
79	0x3dc5b6b9	0.09653992
80	0xbdbb7608	-0.09153372
81	0x3c2afd3b	0.010436351
82	0x3d06e726	0.032935284
83	0xbbdc88cd	-0.006730175
84	0x3d4b14b2	0.049580283
85	0xbd855939	-0.065111585
86	0xbde012bc	-0.10941073
87	0x3da04d42	0.07827236
88	0xbe805dd1	-0.25071576
89	0x3dc6cd66	0.097071454
90	0xbd22bc0d	-0.03973012
91	0xbe6e24cc	-0.23256224
92	0xbe8c540d	-0.27407876
93	0xbe4f456d	-0.20241328
94	0xbe83668a	-0.2566417
95	0xbc22b309	-0.009930381
96	0x3caeb577	0.021326764
97	0xbec9941c	-0.3937081
98	0x3da65361	0.08121372
99	0xbf051348	-0.51982546
100	0xbdee28d5	-0.11628882
101	0x3dcd75e7	0.10032254
102	0xbeca430b	-0.39504275
103	0x3dd94c16	0.10610215
104	0x3d3c1955	0.045922596
105	0xbec7ebb6	-0.3904702
106	0xbe5811b7	-0.21100508
107	0xbe8324c5	-0.2561399
108	0xbe4f9814	-0.20272857
109	0x3d91eca8	0.07125217
110	0xbe8c32a4	-0.27382386
111	0x3dbc1018	0.09182757
112	0xbe63e8dc	-0.22256798
113	0x3dd525a9	0.10407574
114	0xbe1cd711	-0.15316416
115	0xbe8c4fa5	-0.27404514
116	0xbe141a17	-0.14463077
117	0xbea06f36	-0.31334847
118	0xbde472f7	-0.1115474
119	0xbe66bfb4	-0.22534066
120	0x3b84c5c3	0.0040518953
121	0x3cb95dbe	0.022627708
122	0xbd762a24	-0.060098782
123	0xbe8129b1	-0.2522712
124	0xbe8b93d9	-0.27261236
125	0xbd1da069	-0.038483057
126	0x3e154765	0.14578016
127	0x3be130e5	0.0068722838
128	0x3e26f02f	0.1630256
129	0xbe6136b2	-0.21993521
130	0xbda9af27	-0.08285361
131	0xbe3e8ab4	-0.18607599
132	0xbeda1957	-0.42597458
133	0xbdef3065	-0.116791524
134	0x3e1312e2	0.14362672
135	0x3d7a8301	0.06116009
136	0xbe1f2be9	-0.15544094
137	0xbe740a9d	-0.23832174
138	0x3d5a4163	0.053285014
139	0xbe057316	-0.13032183
140	0x3d85a608	0.065258086
141	0xbf95ebc0	-1.171257
142	0xbcd038e9	-0.025417762
143	0xbdc743e3	-0.09729745
144	0xbf0bf74f	-0.5467424
145	0xbee6752e	-0.45011276
146	0xbe86dabd	-0.2633876
147	0x3d28c397	0.041202154
148	0x3be7b84e	0.0070715314
149	0xbd9bf187	-0.07614427
150	0x3e178ab9	0.14799012
151	0x3d945ce2	0.072442785
152	0x3de6e377	0.11273854
153	0xbd9a3524	-0.07529667
154	0x3cd17418	0.025568053
155	0xbd814310	-0.06311619
156	0x3e29e406	0.1659089
157	0xbb8f3bd3	-0.0043711453
158	0xbd9fc29c	-0.07800791
159	0x3e1c861c	0.15285534
160	0xbed3e23d	-0.41383544
161	0xbe2cf1cd	-0.16889115
162	0x3dbb1c28	0.0913623
163	0xbea85f96	-0.32885426
164	0x3c95064a	0.018191475
165	0x3dd7d617	0.10538881
166	0x39a7bd70	0.00031993864
167	0x3d2bc5ee	0.041936807
168	0xbd3c7f4d	-0.04601984
169	0x3f4ab9d2	0.7918979
170	0x3c08a0c9	0.008339115
171	0xbe823971	-0.2543445
172	0xbe7ab940	-0.2448473
173	0xbe3933bb	-0.1808614
174	0xbf284b3c	-0.657398
175	0xbe6faf6a	-0.23406759
176	0xbe16c9a5	-0.14725359
177	0xbc83212f	-0.016007034
178	0xbf1b92ee	-0.6077107
179	0xbf16ea08	-0.58950853
180	0x3c07bf01	0.008285285
181	0xbf302c46	-0.68817556
182	0x3e2883e9	0.1645657
183	0x3d70f065	0.058823008
184	0xbe0b0b0d	-0.13578434
185	0x3e1f606d	0.15564127
186	0x3c03a2f7	0.008034459
187	0xbef00cb5	-0.46884695
188	0xbd93a1c5	-0.072085895
189	0x3e26f9a3	0.16306166
190	0xbdebcf6b	-0.11514171
191	0xbe0c6b7a	-0.13712874
192	0xbde8a94c	-0.11360416
193	0xbfe3502a	-1.7758839
194	0xbee5e600	-0.4490204
195	0xbe413940	-0.18869495
196	0xbfdd5251	-1.7290746
197	0xbe04ab81	-0.12956049
198	0x3db7a848	0.08967644
199	0xbe63283a	-0.22183314
200	0xb990c94a	-0.00027615792
201	0xbdea51d0	-0.11441386
202	0x3d23f649	0.040029798
203	0xbe592749	-0.21206392
204	0xbe0b133c	-0.13581556
205	0x3faf92bc	1.3716655
206	0x3d9dd411	0.07706464
207	0x3d325fe2	0.043548472
208	0xbea45a94	-0.32100356
209	0xbe0d9bf6	-0.13829026
210	0x3da90ef1	0.08254803
211	0xbcda4882	-0.026645903
212	0x3e2ad968	0.16684496
213	0xbe0b300b	-0.13592546
214	0xbe33caa5	-0.17557772
215	0x3d3298bc	0.04360269
216	0x3dbab53d	0.091166
217	0xbe263ca1	-0.16234066
218	0x3e42f7f7	0.19039904
219	0xbe80dcb6	-0.2516839
220	0x3dd847b3	0.105605505
221	0x3e3839b6	0.17990765
222	0x3ea9bb88	0.33150887
223	0xbd838976	-0.06422703
224	0xbe8bbf95	-0.27294603
225	0x3d676284	0.056490436
226	0xbdc908b2	-0.098161116
227	0xbd0ce94a	-0.03440217
228	0xbdffe55e	-0.1249492
229	0xbe14d070	-0.14532638
230	0xc09d23b6	-4.9106092
231	0x3e577d7a	0.2104396
232	0xbd0d45ae	-0.03449028
233	0xc03a62a9	-2.9122717
234	0xbe4924f5	-0.19643004
235	0xbf838afa	-1.0276787
236	0x3dcaf73b	0.09910437
237	0xbaa3c61a	-0.0012494952
238	0xbea75669	-0.32683113
239	0xbdefd181	-0.117098816
240	0xbdf232ad	-0.11826072
241	0xbd680a8b	-0.05665068
242	0xbfafd5f4	-1.3737168
243	0xc008e472	-2.1389432
244	0x3d96b168	0.07358056
245	0xbf1a7454	-0.6033375
246	0xbe6ebebd	-0.23314948
247	0xbe424d9f	-0.18974923
248	0x3dcfa04f	0.10137998
249	0x3deed5a5	0.11661843
250	0x3dd58a64	0.104267865
251	0x3dae7347	0.08518081
252	0xbe51916a	-0.20465627
253	0xbe4d4c9f	-0.2004876
254	0x3e0e4d5d	0.13896699
255	0x3e30c6b1	0.17263295

lin.weight f4 [2, 64]
0	0x3f294dc3	0.6613428
1	0xbe398950	-0.18118787
2	0xbec39086	-0.381962
3	0xbf68872d	-0.9083126
4	0x3924a09b	0.00015700089
5	0xbe8c1fee	-0.2736811
6	0xbd7ad2b6	-0.061236106
7	0xbf8cdae1	-1.1004297
8	0x3eac6067	0.336673
9	0x3cecf86b	0.028927049
10	0x3bd4e9b6	0.006497587
11	0xbf8e9406	-1.1138923
12	0x3d45316e	0.048142843
13	0x3edfd300	0.43715668
14	0xbcd738df	-0.026272235
15	0xbebc4289	-0.36769512
16	0x4043bbfa	3.0583482
17	0x3bc3a198	0.005970191
18	0xbd9efc94	-0.07763019
19	0x402c1d08	2.689272
20	0x3b3cd9e7	0.0028816403
21	0x3dc461a2	0.095889345
22	0xbd8e0922	-0.06935336
23	0x3e64ddcb	0.22350232
24	0xbca6f659	-0.02038114
25	0x4027240c	2.6115751
26	0xbe012a72	-0.12613848
27	0xbdf77f47	-0.12084823
28	0x3e378bad	0.17924376
29	0xbd60c68c	-0.05487685
30	0xbe925a0d	-0.28584328
31	0xbcfc5e3f	-0.030806659
32	0x3e5107cd	0.20413132
33	0xbe017332	-0.126416
34	0xbdfd9a67	-0.123829655
35	0xbd159fdb	-0.036529403
36	0x3e1d6542	0.15370658
37	0x3ede55d0	0.43424845
38	0xbdca765d	-0.09885857
39	0xbc471fd6	-0.012153586
40	0xb9653641	-0.00021859353
41	0xbff67171	-1.925337
42	0x3d04c1c1	0.03241134
43	0xbd97c805	-0.074111976
44	0xbd6e4dfc	-0.05817984
45	0xbd5708a6	-0.052498482
46	0x3d5e030c	0.054202124
47	0x3d872e90	0.06600678
48	0xbe8f65f4	-0.28007472
49	0xbe92a76d	-0.2864336
50	0xbdb24f35	-0.08706514
51	0x3caf3731	0.021388622
52	0xbe270deb	-0.16313903
53	0xbca12d96	-0.019675057
54	0x3c6765c4	0.014123384
55	0x3d42925f	0.04750287
56	0x3e260d7c	0.16216081
57	0x401ad8c0	2.4194794
58	0xbd660809	-0.056160007
59	0x3e33af32	0.175473
60	0xbd65c64c	-0.056097314
61	0x3eaaadaf	0.33335635
62	0xbd5e54f3	-0.054280233
63	0xbdc10522	-0.09424807
64	0xbf13102f	-0.5744657
65	0x3e468064	0.19384915
66	0x3ed68c8b	0.419041
67	0x3f69ca99	0.91324764
68	0x3d9c250d	0.076242544
69	0x3e90cf51	0.2828317
70	0x3db4c999	0.08827514
71	0x3f91eea8	1.1400957
72	0xbe8fb20c	-0.28065526
73	0x3dc07a1e	0.09398292
74	0x3c106c6a	0.00881491
75	0x3f863175	1.0483843
76	0xbd4821ac	-0.048860237
77	0xbe9fd4e2	-0.31217104
78	0xbd2baa53	-0.04191048
79	0x3ee9b1c5	0.4564344
80	0xc047d7f8	-3.1225567
81	0xbcc40e08	-0.023932472
82	0x3e08fe37	0.13378225
83	0xc031c0ae	-2.7773852
84	0xbe13dfd9	-0.1444086
85	0x3da45690	0.08024323
86	0xbd3490f1	-0.04408354
87	0xbeaac8b7	-0.33356258
88	0xbd16a833	-0.0367815
89	0xc026b1d9	-2.604605
90	0x3d04a268	0.032381445
91	0x3e154cd3	0.14580087
92	0xbe180ce7	-0.14848672
93	0xbd7fb8e2	-0.062432177
94	0x3e810476	0.25198716
95	0xbd210ef9	-0.03932092
96	0xbe9fc251	-0.3120294
97	0x3df439b1	0.11925066
98	0x3e77539f	0.24152993
99	0xbd8ef6d7	-0.06980675
100	0xbe94376e	-0.2894854
101	0xbebc3278	-0.36757255
102	0xbd47f324	-0.04881586
103	0x3dd88577	0.105723314
104	0xbc8f2ab6	-0.01747642
105	0x3ffaae5c	1.958446
106	0x3d60cb2e	0.054881267
107	0xbd5f9049	-0.05458096
108	0x3df94879	0.12172026
109	0xbc53cc44	-0.012927119
110	0xbe1979de	-0.14987895
111	0xbe137d6c	-0.14403313
112	0x3e134b08	0.14384091
113	0x3eaa52b7	0.3326623
114	0xbccdd613	-0.025126493
115	0x3d0803fe	0.033206932
116	0x3eaa18ad	0.3322195
117	0x3d2d1b58	0.042262405
118	0xba581293	-0.0008242514
119	0xbca879e9	-0.020565944
120	0xbe076b4a	-0.13224521
121	0xc01b25b8	-2.4241772
122	0xbe1cff13	-0.15331678
123	0xbe2e4bcd	-0.17021103
124	0xbc9cfd6f	-0.019163815
125	0xbe4bf493	-0.19917516
126	0xbbe8991d	-0.0070983307
127	0xbd3e4899	-0.046455953

lin.bias f4 [2]
0	0xbea7d0d0	-0.327765
1	0x3e8cad8d	0.2747616
